…
2025-12-12 10:33:55 | INFO     | train | 
Device: cpu
2025-12-12 10:33:55 | INFO     | train | PyTorch version: 2.9.1+cu128
2025-12-12 10:33:55 | INFO     | train | 
Loading model: SZTAKI-HLT/hubert-base-cc
2025-12-12 10:34:04 | INFO     | train | ✓ Model loaded and moved to cpu
2025-12-12 10:34:04 | INFO     | train |   Total parameters: 110,621,957
2025-12-12 10:34:04 | INFO     | train |   Trainable parameters: 110,621,957
2025-12-12 10:34:04 | INFO     | train |   Model architecture:
BertForSequenceClassification(
  (bert): BertModel(
    (embeddings): BertEmbeddings(
      (word_embeddings): Embedding(32001, 768, padding_idx=0)
      (position_embeddings): Embedding(512, 768)
      (token_type_embeddings): Embedding(2, 768)
      (LayerNorm): LayerNorm((768,), eps=1e-12, elementwise_affine=True)
      (dropout): Dropout(p=0.1, inplace=False)
    )
    (encoder): BertEncoder(
      (layer): ModuleList(
        (0-11): 12 x BertLayer(
          (attention): BertAttention(
            (self): BertSdpaSelfAttention(
              (query): Linear(in_features=768, out_features=768, bias=True)
              (key): Linear(in_features=768, out_features=768, bias=True)
              (value): Linear(in_features=768, out_features=768, bias=True)
              (dropout): Dropout(p=0.1, inplace=False)
            )
            (output): BertSelfOutput(
              (dense): Linear(in_features=768, out_features=768, bias=True)
              (LayerNorm): LayerNorm((768,), eps=1e-12, elementwise_affine=True)
              (dropout): Dropout(p=0.1, inplace=False)
            )
          )
          (intermediate): BertIntermediate(
            (dense): Linear(in_features=768, out_features=3072, bias=True)
            (intermediate_act_fn): GELUActivation()
          )
          (output): BertOutput(
            (dense): Linear(in_features=3072, out_features=768, bias=True)
            (LayerNorm): LayerNorm((768,), eps=1e-12, elementwise_affine=True)
            (dropout): Dropout(p=0.1, inplace=False)
          )
        )
      )
    )
    (pooler): BertPooler(
      (dense): Linear(in_features=768, out_features=768, bias=True)
      (activation): Tanh()
    )
  )
  (dropout): Dropout(p=0.1, inplace=False)
  (classifier): Linear(in_features=768, out_features=5, bias=True)
)
2025-12-12 10:34:04 | INFO     | train | 
✓ Class weights prepared: ['4.403', '1.828', '0.917', '0.628', '0.648']
2025-12-12 10:34:04 | INFO     | train | ✓ Loss function: CrossEntropyLoss with class weights
2025-12-12 10:34:04 | INFO     | train | ✓ Optimizer: AdamW (lr=2e-05)
2025-12-12 10:34:04 | INFO     | train | ✓ Scheduler: Linear with warmup
2025-12-12 10:34:04 | INFO     | train |   Total training steps: 730
…
